…
Average actions of items: 21.202911180724026
The number of inters: 900212
The sparsity of the dataset: 99.89314377686127%
Remain Fields: ['user_id', 'item_id']
Mon 25 Mar 2024 20:17:45 INFO  [Training]: train_batch_size = [4096] train_neg_sample_args: [{'distribution': 'uniform', 'sample_num': 1, 'dynamic': False, 'candidate_num': 0, 'alpha': 1.0}]
Mon 25 Mar 2024 20:17:45 INFO  [Evaluation]: eval_batch_size = [1024] eval_args: [{'split': {'RS': [0.8, 0.1, 0.1]}, 'order': 'RO', 'group_by': 'user', 'mode': {'valid': 'full', 'test': 'full'}}]
Mon 25 Mar 2024 20:17:48 INFO  LDiffRec(
  (mlp): DNN(
    (emb_layer): Linear(in_features=10, out_features=10, bias=True)
    (mlp_layers): MLPLayers(
      (mlp_layers): Sequential(
        (0): Dropout(p=0, inplace=False)
        (1): Linear(in_features=310, out_features=300, bias=True)
        (2): Tanh()
        (3): Dropout(p=0, inplace=False)
        (4): Linear(in_features=300, out_features=300, bias=True)
      )
    )
    (drop): Dropout(p=0.5, inplace=False)
  )
  (autoencoder): AutoEncoder(
    (dropout): Dropout(p=0.1, inplace=False)
    (encoder): MLPLayers(
      (mlp_layers): Sequential(
        (0): Dropout(p=0.0, inplace=False)
        (1): Linear(in_features=42458, out_features=600, bias=True)
        (2): Tanh()
      )
    )
    (decoder): MLPLayers(
      (mlp_layers): Sequential(
        (0): Dropout(p=0.0, inplace=False)
        (1): Linear(in_features=300, out_features=42458, bias=True)
      )
    )
  )
)
Trainable parameters: 38438968
Mon 25 Mar 2024 20:17:49 INFO  FLOPs: 39127700.0
Mon 25 Mar 2024 20:17:53 INFO  epoch 0 training [time: 3.61s, train loss: 6106.1911]
Mon 25 Mar 2024 20:20:10 INFO  epoch 0 evaluating [time: 137.36s, valid_score: 0.039300]
Mon 25 Mar 2024 20:20:10 INFO  valid result: 
recall@10 : 0.0344    mrr@10 : 0.0393    ndcg@10 : 0.0235    hit@10 : 0.1159    map@10 : 0.0109    precision@10 : 0.0127    gauc : 0.8941    itemcoverage@10 : 0.0021    averagepopularity@10 : 1664.0875    giniindex@10 : 0.9997    shannonentropy@10 : 0.0296    tailpercentage@10 : 0.0
…
Average actions of items: 21.202911180724026
The number of inters: 900212
The sparsity of the dataset: 99.89314377686127%
Remain Fields: ['user_id', 'item_id']
Mon 25 Mar 2024 20:39:15 INFO  [Training]: train_batch_size = [4096] train_neg_sample_args: [{'distribution': 'uniform', 'sample_num': 1, 'dynamic': False, 'candidate_num': 0, 'alpha': 1.0}]
Mon 25 Mar 2024 20:39:15 INFO  [Evaluation]: eval_batch_size = [1024] eval_args: [{'split': {'RS': [0.8, 0.1, 0.1]}, 'order': 'RO', 'group_by': 'user', 'mode': {'valid': 'full', 'test': 'full'}}]
Mon 25 Mar 2024 20:39:15 INFO  NeuMF(
  (user_mf_embedding): Embedding(19842, 64)
  (item_mf_embedding): Embedding(42458, 64)
  (user_mlp_embedding): Embedding(19842, 64)
  (item_mlp_embedding): Embedding(42458, 64)
  (mlp_layers): MLPLayers(
    (mlp_layers): Sequential(
      (0): Dropout(p=0.1, inplace=False)
      (1): Linear(in_features=128, out_features=128, bias=True)
      (2): ReLU()
      (3): Dropout(p=0.1, inplace=False)
      (4): Linear(in_features=128, out_features=64, bias=True)
      (5): ReLU()
    )
  )
  (predict_layer): Linear(in_features=128, out_features=1, bias=True)
  (sigmoid): Sigmoid()
  (loss): BCEWithLogitsLoss()
)
Trainable parameters: 7999297
Mon 25 Mar 2024 20:39:15 INFO  FLOPs: 24960.0
Mon 25 Mar 2024 20:39:22 INFO  epoch 0 training [time: 6.50s, train loss: 142.4660]
Mon 25 Mar 2024 20:48:39 INFO  epoch 0 evaluating [time: 556.64s, valid_score: 0.103300]
Mon 25 Mar 2024 20:48:39 INFO  valid result: 
recall@10 : 0.0826    mrr@10 : 0.1033    ndcg@10 : 0.0627    hit@10 : 0.247    map@10 : 0.0335    precision@10 : 0.0318    gauc : 0.912    itemcoverage@10 : 0.001    averagepopularity@10 : 3641.656    giniindex@10 : 0.9997    shannonentropy@10 : 0.0631    tailpercentage@10 : 0.0
…
Average actions of items: 21.202911180724026
The number of inters: 900212
The sparsity of the dataset: 99.89314377686127%
Remain Fields: ['user_id', 'item_id']
Mon 25 Mar 2024 21:47:38 INFO  [Training]: train_batch_size = [4096] train_neg_sample_args: [{'distribution': 'uniform', 'sample_num': 1, 'dynamic': False, 'candidate_num': 0, 'alpha': 1.0}]
Mon 25 Mar 2024 21:47:38 INFO  [Evaluation]: eval_batch_size = [1024] eval_args: [{'split': {'RS': [0.8, 0.1, 0.1]}, 'order': 'RO', 'group_by': 'user', 'mode': {'valid': 'full', 'test': 'full'}}]
Mon 25 Mar 2024 21:47:43 INFO  NNCF(
  (user_embedding): Embedding(19842, 64)
  (item_embedding): Embedding(42458, 64)
  (user_neigh_embedding): Embedding(42458, 32)
  (item_neigh_embedding): Embedding(19842, 32)
  (user_conv): Sequential(
    (0): Conv1d(32, 128, kernel_size=(5,), stride=(1,))
    (1): MaxPool1d(kernel_size=5, stride=5, padding=0, dilation=1, ceil_mode=False)
    (2): ReLU()
  )
  (item_conv): Sequential(
    (0): Conv1d(32, 128, kernel_size=(5,), stride=(1,))
    (1): MaxPool1d(kernel_size=5, stride=5, padding=0, dilation=1, ceil_mode=False)
    (2): ReLU()
  )
  (mlp_layers): MLPLayers(
    (mlp_layers): Sequential(
      (0): Dropout(p=0.5, inplace=False)
      (1): Linear(in_features=832, out_features=128, bias=True)
      (2): ReLU()
      (3): Dropout(p=0.5, inplace=False)
      (4): Linear(in_features=128, out_features=64, bias=True)
      (5): ReLU()
      (6): Dropout(p=0.5, inplace=False)
      (7): Linear(in_features=64, out_features=32, bias=True)
      (8): ReLU()
      (9): Dropout(p=0.5, inplace=False)
      (10): Linear(in_features=32, out_features=16, bias=True)
      (11): ReLU()
    )
  )
  (out_layer): Linear(in_features=16, out_features=1, bias=True)
  (dropout_layer): Dropout(p=0.5, inplace=False)
  (loss): BCEWithLogitsLoss()
)
Trainable parameters: 6139521
Mon 25 Mar 2024 21:47:45 INFO  FLOPs: 774032.0
Mon 25 Mar 2024 21:49:59 INFO  epoch 0 training [time: 133.98s, train loss: 153.8344]
Tue 26 Mar 2024 00:03:59 INFO  epoch 0 evaluating [time: 8039.62s, valid_score: 0.103800]
Tue 26 Mar 2024 00:03:59 INFO  valid result: 
…
Average actions of items: 21.202911180724026
The number of inters: 900212
The sparsity of the dataset: 99.89314377686127%
Remain Fields: ['user_id', 'item_id']
Tue 26 Mar 2024 23:50:44 INFO  [Training]: train_batch_size = [4096] train_neg_sample_args: [{'distribution': 'uniform', 'sample_num': 1, 'dynamic': False, 'candidate_num': 0, 'alpha': 1.0}]
Tue 26 Mar 2024 23:50:44 INFO  [Evaluation]: eval_batch_size = [1024] eval_args: [{'split': {'RS': [0.8, 0.1, 0.1]}, 'order': 'RO', 'group_by': 'user', 'mode': {'valid': 'full', 'test': 'full'}}]
Tue 26 Mar 2024 23:50:46 INFO  RecVAE(
  (encoder): Encoder(
    (fc1): Linear(in_features=42458, out_features=600, bias=True)
    (ln1): LayerNorm((600,), eps=0.1, elementwise_affine=True)
    (fc2): Linear(in_features=600, out_features=600, bias=True)
    (ln2): LayerNorm((600,), eps=0.1, elementwise_affine=True)
    (fc3): Linear(in_features=600, out_features=600, bias=True)
    (ln3): LayerNorm((600,), eps=0.1, elementwise_affine=True)
    (fc4): Linear(in_features=600, out_features=600, bias=True)
    (ln4): LayerNorm((600,), eps=0.1, elementwise_affine=True)
    (fc5): Linear(in_features=600, out_features=600, bias=True)
    (ln5): LayerNorm((600,), eps=0.1, elementwise_affine=True)
    (fc_mu): Linear(in_features=600, out_features=200, bias=True)
    (fc_logvar): Linear(in_features=600, out_features=200, bias=True)
  )
  (prior): CompositePrior(
    (encoder_old): Encoder(
      (fc1): Linear(in_features=42458, out_features=600, bias=True)
      (ln1): LayerNorm((600,), eps=0.1, elementwise_affine=True)
      (fc2): Linear(in_features=600, out_features=600, bias=True)
      (ln2): LayerNorm((600,), eps=0.1, elementwise_affine=True)
      (fc3): Linear(in_features=600, out_features=600, bias=True)
      (ln3): LayerNorm((600,), eps=0.1, elementwise_affine=True)
      (fc4): Linear(in_features=600, out_features=600, bias=True)
      (ln4): LayerNorm((600,), eps=0.1, elementwise_affine=True)
      (fc5): Linear(in_features=600, out_features=600, bias=True)
      (ln5): LayerNorm((600,), eps=0.1, elementwise_affine=True)
      (fc_mu): Linear(in_features=600, out_features=200, bias=True)
      (fc_logvar): Linear(in_features=600, out_features=200, bias=True)
    )
  )
  (decoder): Linear(in_features=200, out_features=42458, bias=True)
)
Trainable parameters: 35698258
Tue 26 Mar 2024 23:50:46 INFO  FLOPs: 35652400.0
Wed 27 Mar 2024 00:04:01 INFO  epoch 0 training [time: 794.29s, train loss: 1579.2600]
