…
Remain Fields: ['entity_id', 'user_id', 'item_id', 'head_id', 'relation_id', 'tail_id']
The number of entities: 50666
The number of relations: 7
The number of triples: 46827
The number of items that have been linked to KG: 15509
Wed 27 Mar 2024 14:56:30 INFO  [Training]: train_batch_size = [4096] train_neg_sample_args: [{'distribution': 'uniform', 'sample_num': 1, 'dynamic': False, 'candidate_num': 0, 'alpha': 1.0}]
Wed 27 Mar 2024 14:56:30 INFO  [Evaluation]: eval_batch_size = [1024] eval_args: [{'split': {'RS': [0.8, 0.1, 0.1]}, 'order': 'RO', 'group_by': 'user', 'mode': {'valid': 'full', 'test': 'full'}}]
Wed 27 Mar 2024 14:56:30 INFO  CKE(
  (user_embedding): Embedding(19426, 64)
  (item_embedding): Embedding(15510, 64)
  (entity_embedding): Embedding(50666, 64)
  (relation_embedding): Embedding(7, 64)
  (trans_w): Embedding(7, 4096)
  (rec_loss): BPRLoss()
  (kg_loss): BPRLoss()
  (reg_loss): EmbLoss()
)
Trainable parameters: 5507648
Wed 27 Mar 2024 14:56:37 INFO  FLOPs: 192.0
Wed 27 Mar 2024 14:57:27 INFO  epoch 0 training [time: 9.74s, train_loss1: 51.2628, train_loss2: 20.1899, train_loss3: 0.0523]
Wed 27 Mar 2024 14:58:19 INFO  epoch 0 evaluating [time: 51.58s, valid_score: 0.075400]
Wed 27 Mar 2024 14:58:19 INFO  valid result: 
…
Remain Fields: ['entity_id', 'user_id', 'item_id', 'head_id', 'relation_id', 'tail_id']
The number of entities: 50666
The number of relations: 7
The number of triples: 46827
The number of items that have been linked to KG: 15509
Wed 27 Mar 2024 15:24:40 INFO  [Training]: train_batch_size = [4096] train_neg_sample_args: [{'distribution': 'uniform', 'sample_num': 1, 'dynamic': False, 'candidate_num': 0, 'alpha': 1.0}]
Wed 27 Mar 2024 15:24:40 INFO  [Evaluation]: eval_batch_size = [1024] eval_args: [{'split': {'RS': [0.8, 0.1, 0.1]}, 'order': 'RO', 'group_by': 'user', 'mode': {'valid': 'full', 'test': 'full'}}]
Wed 27 Mar 2024 15:24:40 INFO  KTUP(
  (user_embedding): Embedding(19426, 64)
  (item_embedding): Embedding(15510, 64)
  (pref_embedding): Embedding(7, 64)
  (pref_norm_embedding): Embedding(7, 64)
  (entity_embedding): Embedding(50666, 64)
  (relation_embedding): Embedding(7, 64)
  (relation_norm_embedding): Embedding(7, 64)
  (rec_loss): BPRLoss()
  (kg_loss): MarginRankingLoss()
  (reg_loss): EmbMarginLoss()
)
Trainable parameters: 5480320
Wed 27 Mar 2024 15:24:41 INFO  FLOPs: 192.0
Wed 27 Mar 2024 15:24:44 INFO  epoch 0 training [time: 2.98s, train_loss1: 42.5468, train_loss2: 0.2527, train_loss3: 51.4714]
Wed 27 Mar 2024 15:30:18 INFO  epoch 0 evaluating [time: 333.86s, valid_score: 0.012100]
Wed 27 Mar 2024 15:30:18 INFO  valid result: 
…
Remain Fields: ['entity_id', 'user_id', 'item_id', 'head_id', 'relation_id', 'tail_id']
The number of entities: 50666
The number of relations: 7
The number of triples: 46827
The number of items that have been linked to KG: 15509
Wed 27 Mar 2024 15:40:50 INFO  [Training]: train_batch_size = [4096] train_neg_sample_args: [{'distribution': 'uniform', 'sample_num': 1, 'dynamic': False, 'candidate_num': 0, 'alpha': 1.0}]
Wed 27 Mar 2024 15:40:50 INFO  [Evaluation]: eval_batch_size = [1024] eval_args: [{'split': {'RS': [0.8, 0.1, 0.1]}, 'order': 'RO', 'group_by': 'user', 'mode': {'valid': 'full', 'test': 'full'}}]
Wed 27 Mar 2024 15:40:50 INFO  MKR(
  (user_embeddings_lookup): Embedding(19426, 64)
  (item_embeddings_lookup): Embedding(50666, 64)
  (entity_embeddings_lookup): Embedding(50666, 64)
  (relation_embeddings_lookup): Embedding(7, 64)
  (user_mlp): MLPLayers(
    (mlp_layers): Sequential(
      (0): Dropout(p=0.0, inplace=False)
      (1): Linear(in_features=64, out_features=64, bias=True)
      (2): Sigmoid()
    )
  )
  (tail_mlp): MLPLayers(
    (mlp_layers): Sequential(
      (0): Dropout(p=0.0, inplace=False)
      (1): Linear(in_features=64, out_features=64, bias=True)
      (2): Sigmoid()
    )
  )
  (cc_unit): Sequential(
    (cc_unit0): CrossCompressUnit(
      (fc_vv): Linear(in_features=64, out_features=1, bias=True)
      (fc_ev): Linear(in_features=64, out_features=1, bias=True)
      (fc_ve): Linear(in_features=64, out_features=1, bias=True)
      (fc_ee): Linear(in_features=64, out_features=1, bias=True)
    )
  )
  (kge_mlp): MLPLayers(
    (mlp_layers): Sequential()
  )
  (kge_pred_mlp): MLPLayers(
    (mlp_layers): Sequential(
      (0): Dropout(p=0.0, inplace=False)
      (1): Linear(in_features=128, out_features=64, bias=True)
      (2): Sigmoid()
    )
  )
  (sigmoid_BCE): BCEWithLogitsLoss()
)
Trainable parameters: 7745796
Wed 27 Mar 2024 15:40:50 INFO  FLOPs: 20672.0
Wed 27 Mar 2024 15:40:50 INFO  Train RS
Wed 27 Mar 2024 15:40:58 INFO  Train KG
Wed 27 Mar 2024 15:40:59 INFO  epoch 0 training [time: 8.83s, train_loss1: 77.5796, train_loss2: -45334.8805]
Wed 27 Mar 2024 15:54:19 INFO  epoch 0 evaluating [time: 799.91s, valid_score: 0.096800]
…
