…
Remain Fields: ['entity_id', 'user_id', 'item_id', 'head_id', 'relation_id', 'tail_id']
The number of entities: 50666
The number of relations: 7
The number of triples: 46827
The number of items that have been linked to KG: 15509
Thu 28 Mar 2024 14:55:58 INFO  [Training]: train_batch_size = [2048] train_neg_sample_args: [{'distribution': 'uniform', 'sample_num': 1, 'dynamic': False, 'candidate_num': 0, 'alpha': 1.0}]
Thu 28 Mar 2024 14:55:58 INFO  [Evaluation]: eval_batch_size = [4096] eval_args: [{'split': {'RS': [0.8, 0.1, 0.1]}, 'order': 'RO', 'group_by': 'user', 'mode': {'valid': 'full', 'test': 'full'}}]
Thu 28 Mar 2024 14:55:58 INFO  CKE(
  (user_embedding): Embedding(19426, 64)
  (item_embedding): Embedding(15510, 64)
  (entity_embedding): Embedding(50666, 64)
  (relation_embedding): Embedding(7, 64)
  (trans_w): Embedding(7, 4096)
  (rec_loss): BPRLoss()
  (kg_loss): BPRLoss()
  (reg_loss): EmbLoss()
)
Trainable parameters: 5507648
Thu 28 Mar 2024 14:55:58 INFO  FLOPs: 192.0
Thu 28 Mar 2024 14:56:04 INFO  epoch 0 training [time: 6.10s, train_loss1: 101.8022, train_loss2: 37.3890, train_loss3: 0.1469]
Thu 28 Mar 2024 14:56:33 INFO  epoch 0 evaluating [time: 28.69s, valid_score: 0.106800]
Thu 28 Mar 2024 14:56:33 INFO  valid result: 
…
Remain Fields: ['user_id', 'item_id']
Thu 28 Mar 2024 15:36:27 INFO  [Training]: train_batch_size = [2048] train_neg_sample_args: [{'distribution': 'uniform', 'sample_num': 1, 'dynamic': False, 'candidate_num': 0, 'alpha': 1.0}]
Thu 28 Mar 2024 15:36:27 INFO  [Evaluation]: eval_batch_size = [4096] eval_args: [{'split': {'RS': [0.8, 0.1, 0.1]}, 'order': 'RO', 'group_by': 'user', 'mode': {'valid': 'full', 'test': 'full'}}]
Thu 28 Mar 2024 15:36:28 WARNING  Max value of item's history interaction records has reached 30.54127608104022% of the total.
Thu 28 Mar 2024 15:36:31 INFO  DMF(
  (user_linear): Linear(in_features=42458, out_features=64, bias=False)
  (item_linear): Linear(in_features=19842, out_features=64, bias=False)
  (user_fc_layers): MLPLayers(
    (mlp_layers): Sequential(
      (0): Dropout(p=0.0, inplace=False)
      (1): Linear(in_features=64, out_features=64, bias=True)
      (2): ReLU()
      (3): Dropout(p=0.0, inplace=False)
      (4): Linear(in_features=64, out_features=64, bias=True)
      (5): ReLU()
    )
  )
  (item_fc_layers): MLPLayers(
    (mlp_layers): Sequential(
      (0): Dropout(p=0.0, inplace=False)
      (1): Linear(in_features=64, out_features=64, bias=True)
      (2): ReLU()
      (3): Dropout(p=0.0, inplace=False)
      (4): Linear(in_features=64, out_features=64, bias=True)
      (5): ReLU()
    )
  )
  (sigmoid): Sigmoid()
  (bce_loss): BCEWithLogitsLoss()
)
Trainable parameters: 4003840
Thu 28 Mar 2024 15:36:31 INFO  FLOPs: 4003584.0
Thu 28 Mar 2024 15:36:46 INFO  epoch 0 training [time: 14.73s, train loss: 361.6169]
Thu 28 Mar 2024 15:37:37 INFO  epoch 0 evaluating [time: 50.79s, valid_score: 0.107500]
Thu 28 Mar 2024 15:37:37 INFO  valid result: 
…
