…
Remain Fields: ['user_id', 'item_id']
Mon 25 Mar 2024 12:39:49 INFO  [Training]: train_batch_size = [4096] train_neg_sample_args: [{'distribution': 'uniform', 'sample_num': 1, 'dynamic': False, 'candidate_num': 0, 'alpha': 1.0}]
Mon 25 Mar 2024 12:39:49 INFO  [Evaluation]: eval_batch_size = [1024] eval_args: [{'split': {'RS': [0.8, 0.1, 0.1]}, 'order': 'RO', 'group_by': 'user', 'mode': {'valid': 'full', 'test': 'full'}}]
Mon 25 Mar 2024 12:39:49 WARNING  Max value of item's history interaction records has reached 30.349763128716862% of the total.
Mon 25 Mar 2024 12:39:52 INFO  DMF(
  (user_linear): Linear(in_features=42458, out_features=64, bias=False)
  (item_linear): Linear(in_features=19842, out_features=64, bias=False)
  (user_fc_layers): MLPLayers(
    (mlp_layers): Sequential(
      (0): Dropout(p=0.0, inplace=False)
      (1): Linear(in_features=64, out_features=64, bias=True)
      (2): ReLU()
      (3): Dropout(p=0.0, inplace=False)
      (4): Linear(in_features=64, out_features=64, bias=True)
      (5): ReLU()
    )
  )
  (item_fc_layers): MLPLayers(
    (mlp_layers): Sequential(
      (0): Dropout(p=0.0, inplace=False)
      (1): Linear(in_features=64, out_features=64, bias=True)
      (2): ReLU()
      (3): Dropout(p=0.0, inplace=False)
      (4): Linear(in_features=64, out_features=64, bias=True)
      (5): ReLU()
    )
  )
  (sigmoid): Sigmoid()
  (bce_loss): BCEWithLogitsLoss()
)
Trainable parameters: 4003840
Mon 25 Mar 2024 12:39:53 INFO  FLOPs: 4003584.0
Mon 25 Mar 2024 12:40:04 INFO  epoch 0 training [time: 11.20s, train loss: 182.6917]
Mon 25 Mar 2024 12:41:16 INFO  epoch 0 evaluating [time: 72.23s, valid_score: 0.108800]
Mon 25 Mar 2024 12:41:16 INFO  valid result: 
…
Average actions of items: 21.202911180724026
The number of inters: 900212
The sparsity of the dataset: 99.89314377686127%
Remain Fields: ['user_id', 'item_id']
Mon 25 Mar 2024 15:26:56 INFO  [Training]: train_batch_size = [4096] train_neg_sample_args: [{'distribution': 'uniform', 'sample_num': 1, 'dynamic': False, 'candidate_num': 0, 'alpha': 1.0}]
Mon 25 Mar 2024 15:26:56 INFO  [Evaluation]: eval_batch_size = [1024] eval_args: [{'split': {'RS': [0.8, 0.1, 0.1]}, 'order': 'RO', 'group_by': 'user', 'mode': {'valid': 'full', 'test': 'full'}}]
Mon 25 Mar 2024 15:26:56 INFO  ConvNCF(
  (user_embedding): Embedding(19842, 64)
  (item_embedding): Embedding(42458, 64)
  (cnn_layers): CNNLayers(
    (cnn_layers): Sequential(
      (0): Conv2d(1, 32, kernel_size=(4, 4), stride=(4, 4))
      (1): ReLU()
      (2): Conv2d(32, 32, kernel_size=(4, 4), stride=(4, 4))
      (3): ReLU()
      (4): Conv2d(32, 32, kernel_size=(2, 2), stride=(2, 2))
      (5): ReLU()
      (6): Conv2d(32, 32, kernel_size=(2, 2), stride=(2, 2))
      (7): ReLU()
    )
  )
  (predict_layers): MLPLayers(
    (mlp_layers): Sequential(
      (0): Dropout(p=0.2, inplace=False)
      (1): Linear(in_features=32, out_features=1, bias=True)
    )
  )
  (loss): ConvNCFBPRLoss()
)
Trainable parameters: 4012449
Mon 25 Mar 2024 15:26:58 INFO  FLOPs: 413856.0
Mon 25 Mar 2024 15:27:38 INFO  epoch 0 training [time: 39.50s, train loss: 441688.4233]
Mon 25 Mar 2024 16:42:09 INFO  epoch 0 evaluating [time: 4470.18s, valid_score: 0.061600]
Mon 25 Mar 2024 16:42:09 INFO  valid result: 
recall@10 : 0.0432    mrr@10 : 0.0616    ndcg@10 : 0.0349    hit@10 : 0.1407    map@10 : 0.0198    precision@10 : 0.0156    gauc : 0.835    itemcoverage@10 : 0.0028    averagepopularity@10 : 2021.7853    giniindex@10 : 0.9995    shannonentropy@10 : 0.0285    tailpercentage@10 : 0.0
…
